[Sat, 17 May 2025 01:47:54 INFO] .lo * src vocab size = 12832
[Sat, 17 May 2025 01:47:54 INFO] .vi * tgt vocab size = 9206
[Sat, 17 May 2025 01:47:54 INFO] Building model...
[Sat, 17 May 2025 01:47:54 INFO] Transformer(
  (encoder): Encoder(
    (embed): Embedding(12832, 256)
    (pe): PositionalEncoder(
      (dropout): Dropout(p=0.1, inplace=False)
    )
    (layers): ModuleList(
      (0): EncoderLayer(
        (norm_1): Norm()
        (norm_2): Norm()
        (attn): MultiHeadAttention(
          (q_linear): Linear(in_features=256, out_features=256, bias=True)
          (k_linear): Linear(in_features=256, out_features=256, bias=True)
          (v_linear): Linear(in_features=256, out_features=256, bias=True)
          (dropout): Dropout(p=0.1, inplace=False)
          (out): Linear(in_features=256, out_features=256, bias=True)
        )
        (ff): FeedForward(
          (linear_1): Linear(in_features=256, out_features=2048, bias=True)
          (dropout): Dropout(p=0.1, inplace=False)
          (linear_2): Linear(in_features=2048, out_features=256, bias=True)
        )
        (dropout_1): Dropout(p=0.1, inplace=False)
        (dropout_2): Dropout(p=0.1, inplace=False)
      )
      (1): EncoderLayer(
        (norm_1): Norm()
        (norm_2): Norm()
        (attn): MultiHeadAttention(
          (q_linear): Linear(in_features=256, out_features=256, bias=True)
          (k_linear): Linear(in_features=256, out_features=256, bias=True)
          (v_linear): Linear(in_features=256, out_features=256, bias=True)
          (dropout): Dropout(p=0.1, inplace=False)
          (out): Linear(in_features=256, out_features=256, bias=True)
        )
        (ff): FeedForward(
          (linear_1): Linear(in_features=256, out_features=2048, bias=True)
          (dropout): Dropout(p=0.1, inplace=False)
          (linear_2): Linear(in_features=2048, out_features=256, bias=True)
        )
        (dropout_1): Dropout(p=0.1, inplace=False)
        (dropout_2): Dropout(p=0.1, inplace=False)
      )
      (2): EncoderLayer(
        (norm_1): Norm()
        (norm_2): Norm()
        (attn): MultiHeadAttention(
          (q_linear): Linear(in_features=256, out_features=256, bias=True)
          (k_linear): Linear(in_features=256, out_features=256, bias=True)
          (v_linear): Linear(in_features=256, out_features=256, bias=True)
          (dropout): Dropout(p=0.1, inplace=False)
          (out): Linear(in_features=256, out_features=256, bias=True)
        )
        (ff): FeedForward(
          (linear_1): Linear(in_features=256, out_features=2048, bias=True)
          (dropout): Dropout(p=0.1, inplace=False)
          (linear_2): Linear(in_features=2048, out_features=256, bias=True)
        )
        (dropout_1): Dropout(p=0.1, inplace=False)
        (dropout_2): Dropout(p=0.1, inplace=False)
      )
      (3): EncoderLayer(
        (norm_1): Norm()
        (norm_2): Norm()
        (attn): MultiHeadAttention(
          (q_linear): Linear(in_features=256, out_features=256, bias=True)
          (k_linear): Linear(in_features=256, out_features=256, bias=True)
          (v_linear): Linear(in_features=256, out_features=256, bias=True)
          (dropout): Dropout(p=0.1, inplace=False)
          (out): Linear(in_features=256, out_features=256, bias=True)
        )
        (ff): FeedForward(
          (linear_1): Linear(in_features=256, out_features=2048, bias=True)
          (dropout): Dropout(p=0.1, inplace=False)
          (linear_2): Linear(in_features=2048, out_features=256, bias=True)
        )
        (dropout_1): Dropout(p=0.1, inplace=False)
        (dropout_2): Dropout(p=0.1, inplace=False)
      )
    )
    (norm): Norm()
  )
  (decoder): Decoder(
    (embed): Embedding(9206, 256)
    (pe): PositionalEncoder(
      (dropout): Dropout(p=0.1, inplace=False)
    )
    (layers): ModuleList(
      (0): DecoderLayer(
        (norm_1): Norm()
        (norm_2): Norm()
        (norm_3): Norm()
        (dropout_1): Dropout(p=0.1, inplace=False)
        (dropout_2): Dropout(p=0.1, inplace=False)
        (dropout_3): Dropout(p=0.1, inplace=False)
        (attn_1): MultiHeadAttention(
          (q_linear): Linear(in_features=256, out_features=256, bias=True)
          (k_linear): Linear(in_features=256, out_features=256, bias=True)
          (v_linear): Linear(in_features=256, out_features=256, bias=True)
          (dropout): Dropout(p=0.1, inplace=False)
          (out): Linear(in_features=256, out_features=256, bias=True)
        )
        (attn_2): MultiHeadAttention(
          (q_linear): Linear(in_features=256, out_features=256, bias=True)
          (k_linear): Linear(in_features=256, out_features=256, bias=True)
          (v_linear): Linear(in_features=256, out_features=256, bias=True)
          (dropout): Dropout(p=0.1, inplace=False)
          (out): Linear(in_features=256, out_features=256, bias=True)
        )
        (ff): FeedForward(
          (linear_1): Linear(in_features=256, out_features=2048, bias=True)
          (dropout): Dropout(p=0.1, inplace=False)
          (linear_2): Linear(in_features=2048, out_features=256, bias=True)
        )
      )
      (1): DecoderLayer(
        (norm_1): Norm()
        (norm_2): Norm()
        (norm_3): Norm()
        (dropout_1): Dropout(p=0.1, inplace=False)
        (dropout_2): Dropout(p=0.1, inplace=False)
        (dropout_3): Dropout(p=0.1, inplace=False)
        (attn_1): MultiHeadAttention(
          (q_linear): Linear(in_features=256, out_features=256, bias=True)
          (k_linear): Linear(in_features=256, out_features=256, bias=True)
          (v_linear): Linear(in_features=256, out_features=256, bias=True)
          (dropout): Dropout(p=0.1, inplace=False)
          (out): Linear(in_features=256, out_features=256, bias=True)
        )
        (attn_2): MultiHeadAttention(
          (q_linear): Linear(in_features=256, out_features=256, bias=True)
          (k_linear): Linear(in_features=256, out_features=256, bias=True)
          (v_linear): Linear(in_features=256, out_features=256, bias=True)
          (dropout): Dropout(p=0.1, inplace=False)
          (out): Linear(in_features=256, out_features=256, bias=True)
        )
        (ff): FeedForward(
          (linear_1): Linear(in_features=256, out_features=2048, bias=True)
          (dropout): Dropout(p=0.1, inplace=False)
          (linear_2): Linear(in_features=2048, out_features=256, bias=True)
        )
      )
      (2): DecoderLayer(
        (norm_1): Norm()
        (norm_2): Norm()
        (norm_3): Norm()
        (dropout_1): Dropout(p=0.1, inplace=False)
        (dropout_2): Dropout(p=0.1, inplace=False)
        (dropout_3): Dropout(p=0.1, inplace=False)
        (attn_1): MultiHeadAttention(
          (q_linear): Linear(in_features=256, out_features=256, bias=True)
          (k_linear): Linear(in_features=256, out_features=256, bias=True)
          (v_linear): Linear(in_features=256, out_features=256, bias=True)
          (dropout): Dropout(p=0.1, inplace=False)
          (out): Linear(in_features=256, out_features=256, bias=True)
        )
        (attn_2): MultiHeadAttention(
          (q_linear): Linear(in_features=256, out_features=256, bias=True)
          (k_linear): Linear(in_features=256, out_features=256, bias=True)
          (v_linear): Linear(in_features=256, out_features=256, bias=True)
          (dropout): Dropout(p=0.1, inplace=False)
          (out): Linear(in_features=256, out_features=256, bias=True)
        )
        (ff): FeedForward(
          (linear_1): Linear(in_features=256, out_features=2048, bias=True)
          (dropout): Dropout(p=0.1, inplace=False)
          (linear_2): Linear(in_features=2048, out_features=256, bias=True)
        )
      )
      (3): DecoderLayer(
        (norm_1): Norm()
        (norm_2): Norm()
        (norm_3): Norm()
        (dropout_1): Dropout(p=0.1, inplace=False)
        (dropout_2): Dropout(p=0.1, inplace=False)
        (dropout_3): Dropout(p=0.1, inplace=False)
        (attn_1): MultiHeadAttention(
          (q_linear): Linear(in_features=256, out_features=256, bias=True)
          (k_linear): Linear(in_features=256, out_features=256, bias=True)
          (v_linear): Linear(in_features=256, out_features=256, bias=True)
          (dropout): Dropout(p=0.1, inplace=False)
          (out): Linear(in_features=256, out_features=256, bias=True)
        )
        (attn_2): MultiHeadAttention(
          (q_linear): Linear(in_features=256, out_features=256, bias=True)
          (k_linear): Linear(in_features=256, out_features=256, bias=True)
          (v_linear): Linear(in_features=256, out_features=256, bias=True)
          (dropout): Dropout(p=0.1, inplace=False)
          (out): Linear(in_features=256, out_features=256, bias=True)
        )
        (ff): FeedForward(
          (linear_1): Linear(in_features=256, out_features=2048, bias=True)
          (dropout): Dropout(p=0.1, inplace=False)
          (linear_2): Linear(in_features=2048, out_features=256, bias=True)
        )
      )
    )
    (norm): Norm()
  )
  (out): Linear(in_features=256, out_features=9206, bias=True)
)
[Sat, 17 May 2025 01:47:54 INFO] Encoder: 8545792
[Sat, 17 May 2025 01:47:54 INFO] Decoder: 8672256
[Sat, 17 May 2025 01:47:54 INFO] * Number of parameters: 17218048
[Sat, 17 May 2025 01:47:54 INFO] Starting training on cuda
[Sat, 17 May 2025 01:48:07 INFO] epoch: 001 - iter: 00200 - train loss: 0.9397 - time elapsed/per batch: 13.2439 0.0662
[Sat, 17 May 2025 01:48:18 INFO] epoch: 001 - iter: 00400 - train loss: 0.9872 - time elapsed/per batch: 11.1180 0.0556
…
