[Sat, 17 May 2025 06:41:40 INFO] .lo * src vocab size = 12872
[Sat, 17 May 2025 06:41:40 INFO] .vi * tgt vocab size = 9167
[Sat, 17 May 2025 06:41:40 INFO] Building model...
[Sat, 17 May 2025 06:41:40 INFO] Transformer(
  (encoder): Encoder(
    (embed): Embedding(12872, 256)
    (pe): PositionalEncoder(
      (dropout): Dropout(p=0.1, inplace=False)
    )
    (layers): ModuleList(
      (0): EncoderLayer(
        (norm_1): Norm()
        (norm_2): Norm()
        (attn): MultiHeadAttention(
          (q_linear): Linear(in_features=256, out_features=256, bias=True)
          (k_linear): Linear(in_features=256, out_features=256, bias=True)
          (v_linear): Linear(in_features=256, out_features=256, bias=True)
          (dropout): Dropout(p=0.1, inplace=False)
          (out): Linear(in_features=256, out_features=256, bias=True)
        )
        (ff): FeedForward(
          (linear_1): Linear(in_features=256, out_features=2048, bias=True)
          (dropout): Dropout(p=0.1, inplace=False)
          (linear_2): Linear(in_features=2048, out_features=256, bias=True)
        )
        (dropout_1): Dropout(p=0.1, inplace=False)
        (dropout_2): Dropout(p=0.1, inplace=False)
      )
      (1): EncoderLayer(
        (norm_1): Norm()
        (norm_2): Norm()
        (attn): MultiHeadAttention(
          (q_linear): Linear(in_features=256, out_features=256, bias=True)
          (k_linear): Linear(in_features=256, out_features=256, bias=True)
          (v_linear): Linear(in_features=256, out_features=256, bias=True)
          (dropout): Dropout(p=0.1, inplace=False)
          (out): Linear(in_features=256, out_features=256, bias=True)
        )
        (ff): FeedForward(
          (linear_1): Linear(in_features=256, out_features=2048, bias=True)
          (dropout): Dropout(p=0.1, inplace=False)
          (linear_2): Linear(in_features=2048, out_features=256, bias=True)
        )
        (dropout_1): Dropout(p=0.1, inplace=False)
        (dropout_2): Dropout(p=0.1, inplace=False)
      )
      (2): EncoderLayer(
        (norm_1): Norm()
        (norm_2): Norm()
        (attn): MultiHeadAttention(
          (q_linear): Linear(in_features=256, out_features=256, bias=True)
          (k_linear): Linear(in_features=256, out_features=256, bias=True)
          (v_linear): Linear(in_features=256, out_features=256, bias=True)
          (dropout): Dropout(p=0.1, inplace=False)
          (out): Linear(in_features=256, out_features=256, bias=True)
        )
        (ff): FeedForward(
          (linear_1): Linear(in_features=256, out_features=2048, bias=True)
          (dropout): Dropout(p=0.1, inplace=False)
          (linear_2): Linear(in_features=2048, out_features=256, bias=True)
        )
        (dropout_1): Dropout(p=0.1, inplace=False)
        (dropout_2): Dropout(p=0.1, inplace=False)
      )
      (3): EncoderLayer(
        (norm_1): Norm()
        (norm_2): Norm()
        (attn): MultiHeadAttention(
          (q_linear): Linear(in_features=256, out_features=256, bias=True)
          (k_linear): Linear(in_features=256, out_features=256, bias=True)
          (v_linear): Linear(in_features=256, out_features=256, bias=True)
          (dropout): Dropout(p=0.1, inplace=False)
          (out): Linear(in_features=256, out_features=256, bias=True)
        )
        (ff): FeedForward(
          (linear_1): Linear(in_features=256, out_features=2048, bias=True)
          (dropout): Dropout(p=0.1, inplace=False)
          (linear_2): Linear(in_features=2048, out_features=256, bias=True)
        )
        (dropout_1): Dropout(p=0.1, inplace=False)
        (dropout_2): Dropout(p=0.1, inplace=False)
      )
    )
    (norm): Norm()
  )
  (decoder): Decoder(
    (embed): Embedding(9167, 256)
    (pe): PositionalEncoder(
      (dropout): Dropout(p=0.1, inplace=False)
    )
    (layers): ModuleList(
      (0): DecoderLayer(
        (norm_1): Norm()
        (norm_2): Norm()
        (norm_3): Norm()
        (dropout_1): Dropout(p=0.1, inplace=False)
        (dropout_2): Dropout(p=0.1, inplace=False)
        (dropout_3): Dropout(p=0.1, inplace=False)
        (attn_1): MultiHeadAttention(
          (q_linear): Linear(in_features=256, out_features=256, bias=True)
          (k_linear): Linear(in_features=256, out_features=256, bias=True)
          (v_linear): Linear(in_features=256, out_features=256, bias=True)
          (dropout): Dropout(p=0.1, inplace=False)
          (out): Linear(in_features=256, out_features=256, bias=True)
        )
        (attn_2): MultiHeadAttention(
          (q_linear): Linear(in_features=256, out_features=256, bias=True)
          (k_linear): Linear(in_features=256, out_features=256, bias=True)
          (v_linear): Linear(in_features=256, out_features=256, bias=True)
          (dropout): Dropout(p=0.1, inplace=False)
          (out): Linear(in_features=256, out_features=256, bias=True)
        )
        (ff): FeedForward(
          (linear_1): Linear(in_features=256, out_features=2048, bias=True)
          (dropout): Dropout(p=0.1, inplace=False)
          (linear_2): Linear(in_features=2048, out_features=256, bias=True)
        )
      )
      (1): DecoderLayer(
        (norm_1): Norm()
        (norm_2): Norm()
        (norm_3): Norm()
        (dropout_1): Dropout(p=0.1, inplace=False)
        (dropout_2): Dropout(p=0.1, inplace=False)
        (dropout_3): Dropout(p=0.1, inplace=False)
        (attn_1): MultiHeadAttention(
          (q_linear): Linear(in_features=256, out_features=256, bias=True)
          (k_linear): Linear(in_features=256, out_features=256, bias=True)
          (v_linear): Linear(in_features=256, out_features=256, bias=True)
          (dropout): Dropout(p=0.1, inplace=False)
          (out): Linear(in_features=256, out_features=256, bias=True)
        )
        (attn_2): MultiHeadAttention(
          (q_linear): Linear(in_features=256, out_features=256, bias=True)
          (k_linear): Linear(in_features=256, out_features=256, bias=True)
          (v_linear): Linear(in_features=256, out_features=256, bias=True)
          (dropout): Dropout(p=0.1, inplace=False)
          (out): Linear(in_features=256, out_features=256, bias=True)
        )
        (ff): FeedForward(
          (linear_1): Linear(in_features=256, out_features=2048, bias=True)
          (dropout): Dropout(p=0.1, inplace=False)
          (linear_2): Linear(in_features=2048, out_features=256, bias=True)
        )
      )
      (2): DecoderLayer(
        (norm_1): Norm()
        (norm_2): Norm()
        (norm_3): Norm()
        (dropout_1): Dropout(p=0.1, inplace=False)
        (dropout_2): Dropout(p=0.1, inplace=False)
        (dropout_3): Dropout(p=0.1, inplace=False)
        (attn_1): MultiHeadAttention(
          (q_linear): Linear(in_features=256, out_features=256, bias=True)
          (k_linear): Linear(in_features=256, out_features=256, bias=True)
          (v_linear): Linear(in_features=256, out_features=256, bias=True)
          (dropout): Dropout(p=0.1, inplace=False)
          (out): Linear(in_features=256, out_features=256, bias=True)
        )
        (attn_2): MultiHeadAttention(
          (q_linear): Linear(in_features=256, out_features=256, bias=True)
          (k_linear): Linear(in_features=256, out_features=256, bias=True)
          (v_linear): Linear(in_features=256, out_features=256, bias=True)
          (dropout): Dropout(p=0.1, inplace=False)
          (out): Linear(in_features=256, out_features=256, bias=True)
        )
        (ff): FeedForward(
          (linear_1): Linear(in_features=256, out_features=2048, bias=True)
          (dropout): Dropout(p=0.1, inplace=False)
          (linear_2): Linear(in_features=2048, out_features=256, bias=True)
        )
      )
      (3): DecoderLayer(
        (norm_1): Norm()
        (norm_2): Norm()
        (norm_3): Norm()
        (dropout_1): Dropout(p=0.1, inplace=False)
        (dropout_2): Dropout(p=0.1, inplace=False)
        (dropout_3): Dropout(p=0.1, inplace=False)
        (attn_1): MultiHeadAttention(
          (q_linear): Linear(in_features=256, out_features=256, bias=True)
          (k_linear): Linear(in_features=256, out_features=256, bias=True)
          (v_linear): Linear(in_features=256, out_features=256, bias=True)
          (dropout): Dropout(p=0.1, inplace=False)
          (out): Linear(in_features=256, out_features=256, bias=True)
        )
        (attn_2): MultiHeadAttention(
          (q_linear): Linear(in_features=256, out_features=256, bias=True)
          (k_linear): Linear(in_features=256, out_features=256, bias=True)
          (v_linear): Linear(in_features=256, out_features=256, bias=True)
          (dropout): Dropout(p=0.1, inplace=False)
          (out): Linear(in_features=256, out_features=256, bias=True)
        )
        (ff): FeedForward(
          (linear_1): Linear(in_features=256, out_features=2048, bias=True)
          (dropout): Dropout(p=0.1, inplace=False)
          (linear_2): Linear(in_features=2048, out_features=256, bias=True)
        )
      )
    )
    (norm): Norm()
  )
  (out): Linear(in_features=256, out_features=9167, bias=True)
)
[Sat, 17 May 2025 06:41:40 INFO] Encoder: 8556032
[Sat, 17 May 2025 06:41:40 INFO] Decoder: 8662272
[Sat, 17 May 2025 06:41:40 INFO] * Number of parameters: 17218304
[Sat, 17 May 2025 06:41:40 INFO] Starting training on cuda
[Sat, 17 May 2025 06:41:53 INFO] epoch: 001 - iter: 00200 - train loss: 1.1363 - time elapsed/per batch: 13.4681 0.0673
[Sat, 17 May 2025 06:42:05 INFO] epoch: 001 - iter: 00400 - train loss: 1.1811 - time elapsed/per batch: 11.8669 0.0593
…
