[Fri, 16 May 2025 23:01:36 INFO] .lo * src vocab size = 9485
[Fri, 16 May 2025 23:01:36 INFO] .vi * tgt vocab size = 8376
[Fri, 16 May 2025 23:01:36 INFO] Building model...
[Fri, 16 May 2025 23:01:37 INFO] Transformer(
  (encoder): Encoder(
    (embed): Embedding(9485, 256)
    (pe): PositionalEncoder(
      (dropout): Dropout(p=0.1, inplace=False)
    )
    (layers): ModuleList(
      (0-3): 4 x EncoderLayer(
        (norm_1): Norm()
        (norm_2): Norm()
        (attn): MultiHeadAttention(
          (q_linear): Linear(in_features=256, out_features=256, bias=True)
          (k_linear): Linear(in_features=256, out_features=256, bias=True)
          (v_linear): Linear(in_features=256, out_features=256, bias=True)
          (dropout): Dropout(p=0.1, inplace=False)
          (out): Linear(in_features=256, out_features=256, bias=True)
        )
        (ff): FeedForward(
          (linear_1): Linear(in_features=256, out_features=2048, bias=True)
          (dropout): Dropout(p=0.1, inplace=False)
          (linear_2): Linear(in_features=2048, out_features=256, bias=True)
        )
        (dropout_1): Dropout(p=0.1, inplace=False)
        (dropout_2): Dropout(p=0.1, inplace=False)
      )
    )
    (norm): Norm()
  )
  (decoder): Decoder(
    (embed): Embedding(8376, 256)
    (pe): PositionalEncoder(
      (dropout): Dropout(p=0.1, inplace=False)
    )
    (layers): ModuleList(
      (0-3): 4 x DecoderLayer(
        (norm_1): Norm()
        (norm_2): Norm()
        (norm_3): Norm()
        (dropout_1): Dropout(p=0.1, inplace=False)
        (dropout_2): Dropout(p=0.1, inplace=False)
        (dropout_3): Dropout(p=0.1, inplace=False)
        (attn_1): MultiHeadAttention(
          (q_linear): Linear(in_features=256, out_features=256, bias=True)
          (k_linear): Linear(in_features=256, out_features=256, bias=True)
          (v_linear): Linear(in_features=256, out_features=256, bias=True)
          (dropout): Dropout(p=0.1, inplace=False)
          (out): Linear(in_features=256, out_features=256, bias=True)
        )
        (attn_2): MultiHeadAttention(
          (q_linear): Linear(in_features=256, out_features=256, bias=True)
          (k_linear): Linear(in_features=256, out_features=256, bias=True)
          (v_linear): Linear(in_features=256, out_features=256, bias=True)
          (dropout): Dropout(p=0.1, inplace=False)
          (out): Linear(in_features=256, out_features=256, bias=True)
        )
        (ff): FeedForward(
          (linear_1): Linear(in_features=256, out_features=2048, bias=True)
          (dropout): Dropout(p=0.1, inplace=False)
          (linear_2): Linear(in_features=2048, out_features=256, bias=True)
        )
      )
    )
    (norm): Norm()
  )
  (out): Linear(in_features=256, out_features=8376, bias=True)
)
[Fri, 16 May 2025 23:01:37 INFO] Encoder: 7688960
[Fri, 16 May 2025 23:01:37 INFO] Decoder: 8459776
[Fri, 16 May 2025 23:01:37 INFO] * Number of parameters: 16148736
[Fri, 16 May 2025 23:01:37 INFO] Starting training on cuda
[Fri, 16 May 2025 23:01:56 INFO] epoch: 003 - iter: 00200 - train loss: 1.0258 - time elapsed/per batch: 19.0441 0.0952
[Fri, 16 May 2025 23:02:16 INFO] epoch: 003 - iter: 00400 - train loss: 1.0320 - time elapsed/per batch: 19.1774 0.0959
…
